Classification/pytorch_tutorial_cifar/cifar_net.pth (torch, 251231 bytes, 10 tensors)

conv1.weight f4 [6, 3, 5, 5]
000000 d7 0e 8b 3e 38 9f 9a 3f ba 85 58 3f 97 1c c2 3e
       0.2715976 1.207984 0.8457905 0.37912437
000010 27 25 fd be 51 db 6f 3f f5 01 7e 3f 18 99 cf 3e
       -0.49442407 0.93694025 0.99221736 0.4054649
000020 0d b1 76 3e 72 7d 91 3e 0b e5 82 be 90 91 a1 bf
       0.24090977 0.2841602 -0.2556537 -1.2622547
000030 2f d7 85 bf 67 56 26 be 78 81 57 3e 7d db d0 3c
       -1.0456294 -0.16243897 0.21045482 0.025495285
000040 ad 42 a0 bd 12 fb f6 3c 66 d3 21 3e 35 09 17 be
       -0.078252174 0.030149017 0.15803298 -0.14749606
000050 77 5d 1b be ae ed 91 be 2f 57 1c bf 43 7b 2f bf
       -0.15172373 -0.28501648 -0.6107053 -0.6854746
000060 2d 64 1b bf a7 8c b0 3e 59 fc 97 3f f7 cd 74 3f
       -0.6069973 0.3448231 1.1873885 0.9562678
000070 ce 41 d0 3e 93 c4 0b be 94 67 ea 3e 76 1f af 3e
       0.40675205 -0.13649206 0.4578215 0.3420369
000080 65 e4 15 bf 18 73 44 bf 7b 2b c1 be bf 01 09 bf
       -0.5855163 -0.7673812 -0.37728485 -0.5351829
000090 7b 0a d9 bf bc 42 ad bf 06 d3 b9 be e7 66 79 3e
       -1.6956323 -1.3535991 -0.3629381 0.2435566
0000a0 b5 9a f9 bb e3 c8 dd 3d 3d a7 fd 3e 84 e0 e9 3e
       -0.0076173195 0.10829332 0.49541655 0.45679104
0000b0 0c 64 8a 3e ac 80 a5 be 0d 23 97 3d 71 07 64 bd
       0.27029455 -0.3232473 0.07379732 -0.05567116
0000c0 04 9d 83 be e0 d1 0f bf 2a 17 2c bf 9e dd fc 3d
       -0.2570573 -0.5617962 -0.67222846 0.123469576
0000d0 44 ec c6 bd f9 75 76 3c 0d f8 41 be d1 3a 59 3e
       -0.09713033 0.015042775 -0.1894228 0.21213843
0000e0 96 d5 6a 3e fd d6 1d bf 60 5d 3b bf e4 97 bd bd
       0.22933039 -0.6165617 -0.73189354 -0.092574865
0000f0 0b ac 7e be 26 79 a5 bf f8 4e 46 bf 60 11 b2 bd
       -0.24870317 -1.2927597 -0.77464247 -0.0869472
000100 6f a4 06 3f cd ab 4f 3e f4 86 f7 3e 48 94 57 3f
       0.52594656 0.2028038 0.4834515 0.84210634
000110 7b 4d 6c 3f 15 f5 4d 3f 9e 2e 32 3e ba 6c 2d 3f
       0.92305726 0.8045209 0.17400596 0.6774403
000120 a7 f0 03 3f 5d ad 21 3f a4 58 f4 3d 5f 58 34 be
       0.5153908 0.63155156 0.11930969 -0.17611836
000130 36 5a 5e 3c c7 3b 03 be 91 30 b4 bc f0 dc 01 be
       0.013571313 -0.12815772 -0.021995815 -0.12681937
000140 c5 44 f6 be 05 0c 82 be 3c 7f 86 be 5f ed f1 bd
       -0.48099342 -0.25399795 -0.26268947 -0.11812853
000150 14 ce 1d 3d 89 0d 50 be 6f bc b9 bd 33 c4 0c 3d
       0.03852661 -0.20317663 -0.09069144 0.034366798
000160 81 3a 56 3d 82 99 24 3e 6c 39 76 be 23 51 d8 bc
       0.052301887 0.16074184 -0.24045342 -0.026405877
000170 8d 84 52 3e 85 72 ff 3e e8 44 fc 3e cb 09 80 3d
       0.20558377 0.4989206 0.4927132 0.06251868
000180 0a 19 c9 3e 64 92 1b 3f b0 10 58 3f 1a 11 39 3f
       0.39276916 0.6077025 0.84400463 0.7229172
000190 87 f6 c4 bb 95 91 84 3e 30 15 89 3d 28 48 94 3d
       -0.0060108337 0.2589232 0.06693494 0.07240325
0001a0 a0 f8 36 be d4 a0 0f be 85 0d 7d 3e ae 34 8c 3e
       -0.1786828 -0.14026195 0.24712189 0.2738394
0001b0 2b b6 01 3d 0e 77 48 be 56 3a 9b be 04 ca 07 bd
       0.03166787 -0.19576666 -0.30317944 -0.03315164
0001c0 94 35 c3 3d f5 2a 86 3c 98 5c 52 be f7 14 82 be
       0.095317036 0.016377905 -0.20543134 -0.2540662
0001d0 e0 68 93 be 60 5b 44 be 2b 0d 1a 3c 94 b9 93 be
       -0.2879095 -0.19175482 0.009402554 -0.28852522
0001e0 18 fd a8 be 40 17 b5 be 99 8c 64 be 94 fe 0d be
       -0.33005595 -0.353693 -0.22319259 -0.13866645
0001f0 f0 5f 33 be 78 7f d2 3b 32 65 de 3e 97 89 04 3f
       -0.17517066 0.006423887 0.4343658 0.51772445
000200 f4 01 98 3e 85 bb b5 3c 0a 2c b2 3d 02 b7 fd 3e
       0.2968899 0.022184143 0.08699806 0.49553686
000210 9c 7a 30 3f 90 bf e3 3e ae 61 38 be 1a 39 39 3c
       0.6893709 0.44482088 -0.18006012 0.011305118
000220 d8 19 ea 3e bf f2 e7 3e d2 d1 72 3e b7 91 f0 bc
       0.45722842 0.45302388 0.23712853 -0.029366357
000230 f3 ef c0 bd dc b6 38 3c 65 8e 4c 3e 79 03 e1 3d
       -0.09420767 0.011274066 0.19976194 0.109869905
000240 fe 15 ce bd 21 df 32 be 5d aa d1 bd 2b 31 4a be
       -0.100627884 -0.1746793 -0.10237572 -0.19745319
000250 0e ee 7c bc c6 35 8f be b5 fe 6a be 3e 1f c3 be
       -0.015437616 -0.27970713 -0.22948726 -0.38109773
000260 55 fb 46 be 76 14 57 3f bf 5c b6 3e 60 95 7b be
       -0.19431813 0.84015596 0.35617635 -0.24568701
000270 89 6f e8 3e 36 f6 09 bf ab d0 83 bf 04 3c 86 3f
       0.45397595 -0.53891313 -1.0298055 1.0487065
000280 33 f7 23 bf c3 61 81 3f f8 6d 0e 3f 74 ad f2 bf
       -0.6404907 1.010796 0.5563655 -1.8959184
000290 ab 83 0d 3f 0e ff 08 bf de d4 f4 3e a9 59 25 3f
       0.55279034 -0.5351418 0.47818655 0.64589936
0002a0 f9 a7 9f bf b6 8a 67 3e 88 d0 e5 3d 60 07 cd 3d
       -1.2473136 0.22611508 0.11221415 0.10011172
0002b0 09 e1 44 be da 64 e0 be ae b9 02 3f 32 ab 9b 3e
       -0.19226469 -0.43826944 0.51064575 0.3040405
0002c0 af 08 43 3c bd 9e d4 be 2b e2 a1 3e 39 b8 89 bd
       0.011903926 -0.41527358 0.31617865 -0.06724591
0002d0 d3 c2 a3 3e ad 9d 2b 3f 23 38 1b bf 8b 83 a3 bf
       0.31984577 0.6703747 -0.6063253 -1.2774519
0002e0 31 7c 32 3f 21 6c a6 bd bd c4 a3 3f 3a b2 fc 3e
       0.6972075 -0.08126093 1.2794415 0.49354726
0002f0 13 f5 0e c0 e4 9b c3 3e 68 c6 97 3d 7e 6a 1b 3f
       -2.2337081 0.38204873 0.0741089 0.6070937
000300 16 46 11 3f a2 ec a3 bf d5 bf 98 3e c7 51 d7 3e
       0.5674757 -1.280659 0.29833856 0.4205458
000310 0a 8c b4 3d 7f 5b 66 be 28 fc da be 77 c9 e1 3e
       0.08815773 -0.2249584 -0.42770505 0.44099018
000320 c5 8e c2 bd 1b 91 bb 3d 4f fa 84 be c0 dc 0c 3e
       -0.094998874 0.09158536 -0.2597222 0.13756084
000330 cb 2d 25 bf 93 97 cf 3d f5 e7 50 3f 2b 0b e7 be
       -0.64523 0.10136332 0.8160394 -0.45125708
000340 d9 2e 85 bf 3e 43 16 3f e4 60 b3 be b4 2f ad 3f
       -1.0404922 0.58696353 -0.3503486 1.3530183
000350 3b 51 5d 3f cb 82 ef bf d4 ef 38 3e 9f 6d fa be
       0.8645207 -1.871179 0.18060237 -0.4891176
000360 aa 10 2b 3f c8 81 6a 3f b0 5a 8c bf 00 f2 31 be
       0.668223 0.9160428 -1.0965176 -0.17377472
000370 fe 39 0f be a0 bc 77 3e 1f eb c8 3d 7b 75 8b bd
       -0.13986966 0.24193048 0.09810471 -0.06809517
000380 ce 41 cd 3d 1e 6d d1 3e c6 50 05 3e 8a aa bc bd
       0.10022317 0.40903562 0.13019094 -0.09212215
000390 f0 e1 3e 3e 71 66 8f 3e c5 c6 d8 3d 46 52 6d be
       0.18640876 0.28007844 0.10584787 -0.23175916
0003a0 65 71 16 bf fc 82 01 bf e1 89 cc be 7d ee 56 3e
       -0.58766776 -0.5059049 -0.39948943 0.20989414
0003b0 31 ce 1f 3e 81 6d b8 be ef e2 0f bf c2 52 04 bf
       0.15606 -0.36021045 -0.5620565 -0.5168878
0003c0 df 25 d3 bd 22 2f e9 be 12 bd 9a be 28 06 df be
       -0.10309958 -0.45543772 -0.30222374 -0.43559384
0003d0 f6 ee b7 be be 17 31 3e 9b 3c 82 be 2c 09 0a bf
       -0.359245 0.17294213 -0.25436863 -0.53920245
0003e0 f7 35 0f bf 54 21 1d bf c5 00 dd bd 6d 91 db bd
       -0.5594172 -0.6137898 -0.107911624 -0.10721097
0003f0 96 70 5a be bb 9b 27 bd 87 74 5d 3d dd f7 82 be
       -0.2133201 -0.04092 0.054066207 -0.2557973

conv1.bias f4 [6]
000000 1e b0 4d bf f6 46 17 3e 9a c8 1a bf d3 b1 10 bc
       -0.8034686 0.14773163 -0.60462344 -0.008831459
000010 b1 4b 2a bf 2c ae ee be
       -0.66521746 -0.46617258

conv2.weight f4 [16, 6, 5, 5]
000000 02 06 ad bd ad 72 94 bd b7 63 37 3e 31 4c c1 bc
       -0.084484115 -0.07248435 0.17909132 -0.023595901
000010 a9 d6 0d be 4b 21 40 bd 35 7a d6 bd 92 79 5f 3e
       -0.13851418 -0.04690675 -0.10472528 0.21823719
000020 8a a8 88 3c 8b 6f d6 be 67 f9 7e 3e 1e 9f 93 3d
       0.016681928 -0.41881976 0.24899827 0.072080836
000030 2c b0 07 3e 22 a9 a4 bd 97 f6 22 bf 0f 9e 01 be
       0.13250798 -0.08040072 -0.63657516 -0.12657951
000040 47 08 0a bd 05 37 33 3e 39 6b 05 bf f2 14 25 bf
       -0.0336993 0.17501457 -0.52116734 -0.64485085
000050 26 c6 19 be 43 60 fc 3d 8f 66 7a bc a2 2c 4c be
       -0.15016994 0.12323048 -0.015283241 -0.19938901
000060 9b 6d f8 be b4 df 8a 3e 6d 35 9e 3e ad f6 ce be
       -0.48521122 0.27123797 0.30900136 -0.40422574
000070 64 70 80 bd 6f 98 8b bd d8 46 c9 3d 1b 25 97 3c
       -0.06271437 -0.06816184 0.098279655 0.01845031
000080 d9 7f a5 be 0f 0d 60 bd fe 34 a4 be a4 c0 53 3e
       -0.32324103 -0.054699954 -0.3207168 0.20678955
000090 bd c8 39 3e 1d 1b 52 be c2 b2 0a be 69 e4 12 be
       0.18142982 -0.20518155 -0.13544753 -0.14344944
0000a0 fb 86 5c 3d bf 2f 61 3d c2 ca 02 be 5d 0e 81 bd
       0.053839665 0.054977175 -0.12772658 -0.06301568
0000b0 fe b2 be 3c ae e5 79 3d 15 59 11 3e 86 24 4c 3e
       0.02327871 0.061010055 0.14194138 0.19935808
0000c0 19 d6 40 3d a9 dd c8 3d 0a 03 e1 bd ef 30 d1 bd
       0.04707918 0.09807903 -0.10986908 -0.102144115
0000d0 ae e1 e1 3e ed 1b f2 3d ad 30 ff bd e6 e9 df be
       0.44117492 0.11821733 -0.12460456 -0.43733138
0000e0 a0 52 b6 be 7e f7 8b 3e d7 9b 7b 3e 5b 04 d2 3d
       -0.35609913 0.2733726 0.24571167 0.10254737
0000f0 7a 7c bf be 3d 7b b8 be 2d c0 05 3d d7 36 02 3f
       -0.37399656 -0.36031523 0.032653976 0.5086493
000100 f0 3e 54 be 09 8d b8 be bb ec 85 be 58 82 26 3d
       -0.20727134 -0.360451 -0.26157174 0.04065165
000110 31 16 03 3f 0e b5 b9 bd 05 fc 07 bf c9 97 ca bd
       0.51205736 -0.090677366 -0.53118926 -0.09892232
000120 f3 0b 72 3d 7b 89 3e 3e 4c 60 00 bf 5b 72 96 3e
       0.059093427 0.18607132 -0.5014694 0.2938412
000130 9f f8 90 bd 8d 87 41 bd 69 f4 01 3e c0 e4 3f 3e
       -0.07078671 -0.047248412 0.12690891 0.18739605
000140 53 ff f9 3e cb f1 a3 ba 91 b7 a9 be 11 96 40 be
       0.4882761 -0.0012507973 -0.33147863 -0.18807246
000150 10 1c 80 3e db 0a fa 3d 4c 15 f0 bd 0f 2d 8e be
       0.2502141 0.12209102 -0.11722812 -0.27768752
000160 9f 03 f9 be 46 ef e1 bc b2 a0 7b 3e d2 6c 0c 3e
       -0.48635575 -0.027579915 0.24573019 0.13713387
000170 2b 79 64 3e ed d8 94 3d d0 33 81 3d d2 5f e8 bd
       0.22311847 0.07267938 0.063087106 -0.11346401
000180 c2 53 77 be be 46 4b bd b7 06 d2 bd b6 ee 77 be
       -0.24153045 -0.049628012 -0.10255187 -0.24212155
000190 f4 84 44 bd d7 85 c5 bd d1 56 c9 bd 20 b9 0a bf
       -0.047978356 -0.096446685 -0.09831012 -0.5418873
0001a0 c0 4d 05 bf 3f 03 92 3e 8c c9 f2 3e 89 01 bd 3e
       -0.5207176 0.28518102 0.47419393 0.36915234
0001b0 f6 b0 54 bf 6c e2 df be 60 f6 bf 3d 66 8b 7c 3e
       -0.8308252 -0.43727434 0.09373164 0.24662551
0001c0 90 09 20 3d 9f e9 10 bf c9 4d d9 be 3e 8b 09 3f
       0.03907162 -0.5660648 -0.42442158 0.5372809
0001d0 69 fe e0 3e 22 f5 ff 3c 6a 32 07 bf 00 f7 be be
       0.439441 0.031244818 -0.528113 -0.3729782
0001e0 fe e5 97 3e 9b 80 dc 3c 65 2d 65 be c7 7c 43 be
       0.29667658 0.026916793 -0.22380598 -0.19090568
0001f0 1e e5 56 be 53 48 9b bd 20 f9 96 bc 02 11 6d be
       -0.20985839 -0.07582154 -0.018429339 -0.23151019
000200 73 3b b5 bc e3 36 8b 3f b8 28 42 bd ed e7 17 bd
       -0.022123074 1.0876125 -0.047402114 -0.037086416
000210 17 9a 42 3e 94 4e 37 be e3 65 26 3f dd d1 bc bd
       0.19004093 -0.17901069 0.64999217 -0.09219716
000220 e3 14 8d be 0c 15 58 3e 51 3a 6d bc d8 d4 c1 3e
       -0.27554998 0.21101779 -0.014479236 0.378577
000230 eb 70 cd be 0f da 76 be 55 82 80 3e 77 f7 54 bd
       -0.40125212 -0.2410662 0.25099435 -0.051993813
000240 cd 23 80 3e 70 d3 8f be 81 80 b5 be 57 bf dc 3d
       0.25027314 -0.28091002 -0.35449603 0.10778683
000250 f9 d1 d9 3d fa 5d ac 3e 22 3b dc 3e ad 7c c8 3d
       0.10635752 0.33665448 0.43013865 0.09789405
000260 58 c8 dc ba a1 4c fb 3d 4b c7 81 3d c5 6f f3 3d
       -0.0016844375 0.12270475 0.0633684 0.11886553
000270 03 92 ba 3d df 11 8e bd 05 92 69 3a 43 20 a2 bd
       0.09109881 -0.069370024 0.0008910003 -0.0791631
000280 da 64 f8 3e 0c 27 d1 3d 74 5f c4 3d 2d 30 ed bc
       0.48514444 0.10212526 0.09588519 -0.028953636
000290 78 1b 81 be cd 37 ba 3d da 25 8f be 59 3b 50 3d
       -0.2521627 0.090926744 -0.27958566 0.05083785
0002a0 3f fc d2 bd 39 dc 56 bd d5 34 64 3e 00 c2 dc bd
       -0.103020184 -0.052456114 0.22285779 -0.1077919
0002b0 60 b4 ad 3e d2 94 c7 3d ca 0e 0d 3e 38 1e 0d 3f
       0.33926678 0.09745182 0.13775173 0.55124235
0002c0 47 8f 1d 3f e7 c7 80 3e 19 4b 02 3f d7 cd 0e 3f
       0.6154675 0.25152513 0.5089584 0.55782837
0002d0 cf b2 83 3e 97 89 35 bb b0 8b 14 bf 04 21 bf bd
       0.25722358 -0.0027700418 -0.58025646 -0.09332469
0002e0 ff 80 ae bb 9c ed 3a 3e 52 17 32 3e 9f 43 5e be
       -0.005325436 0.18254703 0.17391708 -0.21705483
0002f0 b2 83 08 3e ae 9a c9 bd 41 ad 37 be 17 73 1a be
       0.13331488 -0.09843956 -0.17937185 -0.15082966
000300 63 2f 99 be c7 19 86 be 42 cd 3f bd 35 4e f1 be
       -0.29918966 -0.26191542 -0.04682661 -0.4712998
000310 89 82 88 be 94 53 46 3d db 01 42 be 1e e3 db bd
       -0.2666209 0.04841955 -0.1894602 -0.107366785
000320 e9 8c d4 be 12 4e 99 be b5 58 68 be fb 90 cd be
       -0.41513756 -0.29942375 -0.22690089 -0.40149674
000330 98 85 83 be e9 b7 e8 be b9 d0 85 3b ec 26 3e be
       -0.2568786 -0.45452812 0.0040837196 -0.18569535
000340 96 16 db bd 4a ad 5d bd 78 e6 56 3d 6b 0e 73 3e
       -0.10697667 -0.05412034 0.052465886 0.23735969
000350 ea e8 cf bd 4d c8 7f 3e e7 af 4c 3e bb 7d 08 be
       -0.10151847 0.24978752 0.19988976 -0.13329212
000360 16 5b 10 3f 56 53 ef bd e3 92 5a 3e 2b 9a 47 3c
       0.56388986 -0.11685817 0.21345095 0.012182753
000370 b9 a8 85 be d0 a2 00 3f a3 3f d5 be 9e 16 45 bd
       -0.26105288 0.5024843 -0.41650113 -0.048117273
000380 de dc 37 3e 18 fe 74 bc fd a2 16 3e 02 46 a5 3d
       0.17955348 -0.014953159 0.14710613 0.080699936
000390 c5 7c ab 3e d7 38 bf 3e 3f e8 93 3e f6 14 2f 3e
       0.3349363 0.37348053 0.28888127 0.1709784
0003a0 63 5f 05 3e 34 ea 3c 3e 34 24 29 3e 0a ef 72 3c
       0.13024668 0.18448716 0.16517717 0.014827499
0003b0 f7 97 a4 be 4f 79 8f be 7e 98 d9 be bb 4f 13 be
       -0.3214719 -0.2802224 -0.42499155 -0.14385884
0003c0 ee 09 89 be bf 1b a1 bc f5 f7 90 bc 9d d4 73 3e
       -0.26765388 -0.01966655 -0.01769636 0.23811574
0003d0 2b cd 6d bb c3 5c f2 be 4c 1a 97 be b5 e7 77 be
       -0.003628562 -0.47336397 -0.2951225 -0.24209483
0003e0 7d b9 50 be 83 79 03 bf a4 93 2c 3f 63 18 61 3e
       -0.20383258 -0.5135729 0.6741278 0.21981959
0003f0 29 f0 30 3e d8 8d d7 3e 07 ec 6d 3e 85 e3 2d 3e
       0.17279114 0.42100406 0.23234569 0.16981323

conv2.bias f4 [16]
000000 ea d0 56 bf e5 af 07 c0 a6 eb 1a 40 38 9e 64 3e
       -0.8391253 -2.1201108 2.4206328 0.2232598
000010 0d d9 c0 3f a1 b9 96 3f 5b fc 24 bf 8e 96 59 3f
       1.5066239 1.17754 -0.64447564 0.84995353
000020 f4 aa 8f bf 70 51 96 3f 05 69 81 3e 11 3b 69 3f
       -1.1224046 1.1743603 0.25275436 0.91105753
000030 8b f5 86 bf 95 85 92 be 78 4f f0 bf 82 2c 3a bd
       -1.0543684 -0.2861754 -1.8774252 -0.045452602

fc1.weight f4 [120, 400]
000000 88 dc 2e be 56 dc 97 bd df c0 a4 bb 26 91 94 be
       -0.17076313 -0.074150726 -0.005027875 -0.2901699
000010 c0 b2 21 be 0b 33 bc bc 98 59 d9 3c eb 42 ff 3b
       -0.15790844 -0.022973558 0.02653198 0.0077899597
000020 f9 d1 6b 3d a2 81 01 be de 66 b0 bd cf 01 c3 bd
       0.057573292 -0.12647107 -0.0861337 -0.09521829
000030 cf 7a 6a 3d a3 82 03 3e 54 5c 19 be 63 51 0d 3e
       0.057246026 0.12842803 -0.14976627 0.13800578
000040 73 8c 67 bd 1d 1c 57 3e b3 93 d8 bd cf 6f 78 be
       -0.056530427 0.21006818 -0.105750464 -0.24261402
000050 73 18 8b 3e eb 1e c5 3e 44 38 03 3e de 10 48 3e
       0.2716709 0.3850015 0.12814432 0.19537684
000060 83 cd 79 3e f1 96 4b 3e 89 06 c1 3c e4 7d ad bd
       0.24394803 0.19881798 0.023562687 -0.08471277
000070 79 89 e2 bd 5d 2e 15 3d e4 f8 a3 bd dd 24 20 3d
       -0.11061377 0.03642117 -0.080064565 0.039097656
000080 98 85 f5 3c 81 53 c3 3d dc ea 08 3e d8 66 97 bc
       0.029970929 0.095374115 0.13370842 -0.018481657
000090 23 53 0d bd ff b9 bc 3c 9e d5 ef be 67 ed c0 be
       -0.034503113 0.023037909 -0.46842664 -0.37681124
0000a0 c3 19 94 3e 83 ed 38 3e b2 b6 82 3e 3b 24 05 3e
       0.28925905 0.18059354 0.2553001 0.13002102
0000b0 f9 7f 9a 3e 55 49 da bc 23 69 c9 bd 4b 1a 85 3e
       0.3017576 -0.026646296 -0.09834506 0.25996622
0000c0 00 d1 5e 3e 1a af f4 3d 41 a2 24 3d 16 73 ed 3a
       0.21759415 0.119474605 0.0401938 0.0018115963
0000d0 c6 39 08 3e ad 03 81 3d c8 da 1e 3c 22 43 51 be
       0.13303289 0.06299529 0.009695716 -0.20435765
0000e0 6e c9 89 be d9 09 d4 bd 64 a3 aa 3d 91 6d 82 3b
       -0.2691149 -0.10353441 0.083319455 0.0039803465
0000f0 4a ed 37 be a2 ff 8c be 52 d9 80 be 22 90 30 be
       -0.17961612 -0.27538782 -0.25165802 -0.17242482
000100 d7 fa 11 be 5c e8 04 3d f6 58 46 bd 3d 9a c5 bd
       -0.14255844 0.032448158 -0.048424684 -0.09648559
000110 a1 bf 3b bd 74 46 88 be d8 c6 b0 be df 74 8e be
       -0.04583705 -0.2661625 -0.34526706 -0.2782354
000120 e0 6e 45 3d 94 a3 00 bc 5e bd e9 bd 67 0f 71 be
       0.04820144 -0.0078515 -0.11413072 -0.23541032
000130 26 e2 37 3d a0 dc be bc 98 74 6e bc 0d 2b 58 3d
       0.044893406 -0.023298562 -0.014554165 0.05277543
000140 b8 ef a8 bd 59 1a 1c be 48 17 28 bd ba 6a 4d bd
       -0.08248848 -0.15244426 -0.041037828 -0.05015061
000150 09 4e 1a be 62 7a c9 3c 0e 33 03 bb 8b 83 08 bd
       -0.1506883 0.02459449 -0.0020019445 -0.033328574
000160 83 1e f0 3c 17 9c a5 bb b7 bf e8 3d 9a 4a b7 bd
       0.029311424 -0.0050540078 0.11364692 -0.08949776
000170 6b 46 7b bd 18 20 e2 3d b6 d0 01 be 5f 32 15 3d
       -0.061346453 0.11041278 -0.12677273 0.03642499
000180 f6 60 4f 3e 06 3e 81 3d ef 3c e4 3c a4 ee da bd
       0.20251831 0.06310658 0.027861087 -0.10690048
000190 36 a6 fe 3d 68 60 eb 3d 48 2a 09 3d bf 24 0a bd
       0.12434046 0.114929974 0.03348759 -0.03372645
0001a0 38 e7 63 3e 46 6b 9a bd e1 1f b0 bc 10 3d 9e 3d
       0.22256172 -0.07539992 -0.021499576 0.077264905
0001b0 f8 38 d5 ba d2 91 7a 3d d6 79 44 be d1 de 90 be
       -0.0016267588 0.06117422 -0.19187102 -0.28294995
0001c0 14 b3 02 be 94 7a 79 bd 94 da ec 3d 44 5f f0 3d
       -0.12763625 -0.060907915 0.11565128 0.117369205
0001d0 07 88 44 bc 42 d9 8e 3c 70 8a 5b 3d f0 82 05 bb
       -0.011995322 0.017437581 0.05359882 -0.0020372234
0001e0 65 6d f6 bd ef 51 a8 39 e3 68 94 3e 15 ec cc bd
       -0.12032584 0.00032104502 0.28986272 -0.100059666
0001f0 e1 cf 3e be 48 c5 68 3d 81 43 9b be cf ea 93 bd
       -0.18633987 0.056828767 -0.3032494 -0.072225206
000200 bf c8 1f be 1b c6 c9 bd f8 7b 52 3d 3d 1e 23 bd
       -0.15603922 -0.09852239 0.051387757 -0.03982376
000210 38 3c 93 bc 00 9f 24 be 9b ac 53 be bb 7c 41 be
       -0.01797305 -0.16076279 -0.20671313 -0.18895237
000220 f9 6e 0c be 28 03 8a 3d 4a 02 3e 3e 4d fe b3 3d
       -0.13714208 0.06738883 0.1855556 0.087887384
000230 60 9d d7 bd 92 e1 6f bd fe 24 a4 3b ae e3 01 3c
       -0.10528064 -0.05856473 0.0050092926 0.007927818
000240 11 c4 4b bd 51 21 86 3e 54 7b 82 3d d2 c1 bf bc
       -0.04974753 0.26197293 0.06371179 -0.02340785
000250 1a f5 ff bd f3 a4 aa bc bf 0c 90 3d 14 ef 48 be
       -0.12497921 -0.020830607 0.07033681 -0.19622451
000260 24 98 bb bd 1f f9 26 bd 72 ce 8c be 21 8a 12 3e
       -0.09159878 -0.040764924 -0.27501255 0.14310504
000270 7b a7 ad bd 0e 19 d3 bd 33 68 94 3d 59 fb 1e 3e
       -0.0847921 -0.10307513 0.07246437 0.15525569
000280 fb 32 a1 3d 5f 5e 80 bd 08 07 2d 3e 43 6a 00 3e
       0.07871052 -0.06268 0.16897213 0.12540536
000290 de c1 4d be 4b fe d4 3d 18 6c 4a 3c da 07 0f bd
       -0.20093486 0.10400065 0.012354873 -0.034919597
0002a0 ea 42 e7 3d aa 6b e5 3b 17 45 89 bd d7 a3 d7 3d
       0.1129206 0.00700136 -0.06702631 0.10529297
0002b0 0c c7 e1 bd 79 e9 a7 bd 58 9e 22 be 58 54 42 be
       -0.11024293 -0.08198828 -0.15880716 -0.18977487
0002c0 c4 6a 4a bd 42 36 fe 3c e2 ad 67 bd 0f 6f 51 3e
       -0.049418226 0.031031732 -0.056562312 0.20452522
0002d0 0a 9c ae bd c3 d8 9e bd 6c c6 6c be 87 76 7a 3d
       -0.08525856 -0.07756188 -0.23122567 0.061148193
0002e0 ba 9a 91 3d b3 df 36 bd c2 39 43 be 7e 68 65 be
       0.0710959 -0.04464693 -0.19065002 -0.22403142
0002f0 bb 18 64 3c 2f 80 62 be 2f 7b 10 3e e2 4a 4c be
       0.013921912 -0.2211921 0.14109491 -0.1995044
000300 76 4c e0 3d dc 25 56 3d e0 5a 68 3d c2 d0 a1 bd
       0.10952084 0.0522822 0.05672729 -0.079011455
000310 84 b9 0b be 3a af 37 3e 63 39 cc 3c d0 38 0d be
       -0.13644987 0.17937937 0.024929708 -0.13791203
000320 04 3f c7 3d c0 5e 2a be 58 65 67 be 72 f0 e0 bc
       0.09728816 -0.16637707 -0.22597253 -0.027458403
000330 bd 48 58 3e 34 82 1c 3e e3 76 22 be 6f 91 28 bd
       0.21121497 0.15284044 -0.15865664 -0.04115432
000340 91 1f 6a bd ea 1d 18 3e cb 61 e8 be bc 01 cc 3d
       -0.05715901 0.14855161 -0.4538711 0.09961268
000350 8f d7 9b 3d b1 e6 3f bc a4 b4 3c 3e 7e 76 d2 bc
       0.07609474 -0.011712716 0.18428284 -0.025691267
000360 f9 b0 7c be a3 56 3a 3e ae bd cb 3c 73 22 2d 3e
       -0.24676885 0.18197112 0.02487072 0.16907673
000370 ca 1e 64 3e 02 d6 82 be 8d d9 85 3c 81 dc 48 3e
       0.2227737 -0.255539 0.016339088 0.19615366
000380 e6 db a9 3e 23 78 00 3e 0a 98 0b be 8d 16 2f bd
       0.33175582 0.12545829 -0.13632217 -0.042746115
000390 0b b6 f8 bd 35 cc b4 bd 57 01 e3 3d 53 69 9d be
       -0.12144097 -0.08828012 0.1108424 -0.30744419
0003a0 b2 12 a4 3d 15 68 f4 bd d1 5c a2 be 88 40 4f be
       0.08011378 -0.119339146 -0.31711438 -0.2023946
0003b0 09 47 8d bd c8 3e 3c 3d aa 54 48 3d 9c c3 cd 3d
       -0.068983145 0.04595831 0.048908867 0.10047075
0003c0 18 3c e0 bd f3 b2 ab bd 3c d3 d0 bc 97 99 0f 3e
       -0.10948962 -0.08383741 -0.02549135 0.14023434
0003d0 44 2e ed bc 15 07 0c be da 87 cc bb 07 9b 16 be
       -0.028952725 -0.13674577 -0.0062417807 -0.14707576
0003e0 0c 44 55 be 5f 85 98 3d 09 87 de bc 38 15 85 bd
       -0.20826739 0.074473135 -0.027164 -0.06498188
0003f0 0f 32 42 3d 0a 3e 87 3d a5 b3 69 3d c9 88 27 be
       0.04741102 0.0660363 0.057056088 -0.16360773

fc1.bias f4 [120]
000000 a3 45 65 bd 8f c1 da 3d 6b ec 95 bb de 37 39 3e
       -0.055974614 0.106814496 -0.0045753024 0.18087718
000010 b9 87 a8 3c 5e 82 0a be fc dd 38 be c8 be 97 3e
       0.02057253 -0.13526294 -0.1805343 0.29637742
000020 f2 c9 c4 3e 8b e0 86 bd 64 95 04 be 63 6b 86 3e
       0.38435322 -0.06585797 -0.12947613 0.26253805
000030 9c 3f ad 3e 4a fa 9b 3e 06 9f 6f 3e c8 bb 1d 3e
       0.33837593 0.30464393 0.23400506 0.15403664
000040 5e 3a 22 bd 74 30 88 be 6b 7f b1 bc 2e 12 09 be
       -0.039606445 -0.26599467 -0.021667203 -0.13385841
000050 3c 56 c8 3d 5b 99 21 3e c4 2c 8c 3e 36 e8 8e bd
       0.09782073 0.15781157 0.27377903 -0.069778845
000060 54 9f 33 bd 76 ea 6d bc 28 ac 6b be 39 de 08 be
       -0.04385312 -0.014521232 -0.23014891 -0.13366021
000070 42 44 1f bb 25 e9 b1 bd 6a 40 ae bb a3 62 aa 3e
       -0.002430216 -0.08687047 -0.0053177373 0.3327838
000080 e5 1f 5d be 37 81 fb bd ba 91 06 be 29 4c 54 be
       -0.21594198 -0.12280505 -0.13141528 -0.20732178
000090 12 d2 a9 bd d5 e8 bd 3d 7d 64 32 be e7 50 a7 bc
       -0.08292021 0.09272925 -0.17421146 -0.02042432
0000a0 8e 26 2f be 07 61 b9 3c 8f d4 26 3e 10 1e c2 bd
       -0.17104551 0.022629274 0.16292022 -0.0947839
0000b0 24 0f 96 3e f2 63 2b 3e 32 33 1e 3e 36 cc 83 be
       0.29308426 0.16737345 0.15449217 -0.25741738
0000c0 4e 4e 48 bd e8 f0 4a 3e 9d d9 ac 3d 31 f4 79 3e
       -0.048902802 0.19818461 0.08439944 0.24409558
0000d0 48 4a 8a be d4 bc 9d 3e e6 f5 d4 bc e1 65 ed bd
       -0.27009797 0.30808127 -0.02599616 -0.115916975
0000e0 80 59 63 bc 3a 21 4d 3e 56 af 64 3d 2c 0b 01 be
       -0.013876319 0.20032206 0.055831276 -0.12601918
0000f0 b6 38 29 be a6 d6 35 3d 85 c4 64 bd 3f bd a2 bd
       -0.1652554 0.044394158 -0.055851478 -0.07946252
000100 80 4c 29 3e 65 85 56 bd d7 60 a4 3d e9 86 36 bd
       0.16533089 -0.05237331 0.08026283 -0.044562254
000110 a1 d7 ba 3e cd f9 ab 3e 17 ba 59 bd c5 dc aa be
       0.36492637 0.3358902 -0.053155985 -0.3337156
000120 ff 4d 55 3e 4b b6 79 bd be 29 11 be 4f a0 a2 3e
       0.20830534 -0.060964864 -0.1417608 0.3176293
000130 44 51 ea 3c 75 cc b0 bd 96 a2 bb 3d fc 4b 3d 3c
       0.028603204 -0.08632747 0.0916187 0.011553761
000140 de bf 0a 3f fb 31 5a be 2b 97 16 bd 14 a6 e2 3e
       0.54199016 -0.21308129 -0.03676526 0.44267333
000150 f1 d1 db bd e7 3d f0 3e b1 28 00 3d 5f 59 70 3d
       -0.107334025 0.46922228 0.031288806 0.05867898
000160 f7 12 87 bd 18 20 2c 3d b9 94 ea bd 50 14 c8 3d
       -0.06595414 0.042022794 -0.11454148 0.09769499
000170 58 87 28 3e 1e c8 34 bf 13 24 d8 3e 07 ad 37 be
       0.1645788 -0.70617855 0.42215022 -0.17937098
000180 93 2f ed 3d a7 b5 80 bc d6 f7 da 3e 04 55 c4 be
       0.1158134 -0.015711619 0.4276721 -0.38346112
000190 2f 41 bc bc a3 4a 4a be b8 a0 91 3d 8f 6c d9 be
       -0.0229803 -0.19755034 0.07110733 -0.42465636
0001a0 6b da c3 bd 91 09 e1 bc f9 28 df 3d 61 ed 61 3e
       -0.09563144 -0.027470382 0.10896487 0.22063209
0001b0 6b fc 84 3e 36 4f 22 3e c0 5e 90 be b0 4d 1b 3e
       0.2597383 0.15850529 -0.2819729 0.15166354
0001c0 63 a0 bd bd a2 c4 8f bc 3f a3 54 3e 42 ac 81 3e
       -0.09259107 -0.017549817 0.20765398 0.25326735
0001d0 84 e9 eb 3d 04 d7 7f be 03 7b 3c bb e4 e0 7f 3e
       0.11519149 -0.24984366 -0.0028759844 0.24988133

fc2.weight f4 [84, 120]
000000 22 64 35 bd 8b bd e1 bd bd 6c 21 be f0 c2 1c 3d
       -0.044284947 -0.110224806 -0.15764137 0.038271844
000010 31 fa a5 bb fb 8f f4 bd 6a 92 6a be 75 40 27 bd
       -0.0050652255 -0.119415246 -0.22907415 -0.040832955
000020 12 e4 09 3e 1d e3 23 be 8b 89 09 be 5c b0 85 be
       0.13465908 -0.16004606 -0.13431375 -0.26111114
000030 00 7e d8 bd 95 60 b8 bc a6 b1 56 3d ea f7 ca 3b
       -0.105709076 -0.022506991 0.052415513 0.0061941044
000040 6d 8f 9d 3e 0f c8 73 be c2 1e 95 be 31 45 80 3e
       0.30773488 -0.23806785 -0.2912503 0.2505279
000050 d1 a2 28 be 7e b6 d8 bd ed 04 77 3e 5f d2 c1 3c
       -0.1646836 -0.105816826 0.24122973 0.023659883
000060 f6 22 27 be 35 19 8b bd f6 ed f6 3d b6 bd 64 ba
       -0.1632193 -0.06791917 0.12057106 -0.0008725779
000070 7f 46 0e 3d ce 90 8e bd 08 8d ba bd d2 fa 2c ba
       0.0347352 -0.06961213 -0.09108931 -0.00065986544
000080 b5 ef 4d be 3a f1 5b 3e a9 97 40 be b7 66 19 bd
       -0.20110972 0.2147874 -0.18807854 -0.037451472
000090 4a 3b 5e be 50 4b 65 be 97 c1 20 be e2 d6 59 be
       -0.21702304 -0.2239201 -0.15698849 -0.21273378
0000a0 19 2a b0 be 64 21 80 3d 99 60 81 3e 4a 95 8b be
       -0.34407118 0.06256369 0.2526901 -0.27262336
0000b0 d7 0d 89 bd 83 98 7a 3e 60 98 2f 3e 41 4d 2d be
       -0.06692093 0.24472241 0.1714797 -0.16924001
0000c0 e0 42 05 be dd b6 48 be d9 a0 b7 be 57 73 a1 bd
       -0.13013792 -0.19601007 -0.35864905 -0.078833275
0000d0 fa f2 ea bd 16 11 c8 bd 4f d1 ce 3c 0c fa 60 3e
       -0.11472125 -0.09768884 0.02524629 0.21970385
0000e0 d7 c0 4a be 01 a2 67 3e f4 2f 59 be f8 0f 11 3e
       -0.19800125 0.22620393 -0.21209699 0.14166248
0000f0 cf 05 a6 3b 41 ac c8 3d 37 a4 79 be e3 a9 0c 3d
       0.0050666104 0.0979848 -0.24379049 0.034341704
000100 67 fd b7 be b1 17 3f bd a9 bc 9c bd e3 88 a2 be
       -0.35935518 -0.046653453 -0.076531716 -0.3174506
000110 97 25 24 3d 39 1b 1f 3e 20 5c 93 be e6 ec e8 bd
       0.04007491 0.15537728 -0.28781223 -0.1137331
000120 b9 46 be 3d 78 0e 38 3e ab 13 02 be 98 3e 4b 3c
       0.09290833 0.1797427 -0.12702815 0.01240506
000130 4b 98 d1 3d 17 03 ab 3c 60 93 6b be 6e a0 0c bd
       0.10234126 0.020875497 -0.23005438 -0.034332685
000140 cc 31 c4 3b 32 bc 63 bd ff bc 0b be 76 1a 4b 3d
       0.0059873816 -0.0555994 -0.13646315 0.049585782
000150 6f 36 50 bd 29 1a 8a 3b 74 ff 3e be 39 93 87 be
       -0.050833162 0.0042145443 -0.18652135 -0.2647951
000160 39 86 53 be 9b cb be be 80 44 5f be bb ed 2e 3d
       -0.2065667 -0.37264714 -0.21803474 0.042707186
000170 de 15 69 bc aa 5f 9e 3d 2c e0 e3 bd e8 69 4f be
       -0.014226405 0.0773309 -0.11126742 -0.20255244
000180 10 ad 46 bd 4a e5 c1 3d ba 09 35 bd 3c 68 3f bd
       -0.04850489 0.094675615 -0.04419873 -0.046730265
000190 bf b4 78 3d 86 ec 9c be e6 8b 8a be 49 06 7d bd
       0.060719248 -0.30649203 -0.2705986 -0.061773572
0001a0 f5 dd e9 bd 3a 3d 30 bd 23 dc 63 be 3f 8a 29 be
       -0.11419288 -0.04302714 -0.22251944 -0.16556643
0001b0 e6 91 6b bd d6 d7 95 3e 63 ad 52 bd 72 73 59 3e
       -0.057512186 0.29266232 -0.051434886 0.21235445
0001c0 c5 77 07 3e aa 8c 85 3e 6b 64 79 3d ef 41 2a bd
       0.13229282 0.2608388 0.06088678 -0.041566785
0001d0 88 a5 03 be 49 28 a3 3d f3 98 9c be 7d 65 26 bd
       -0.12856114 0.07966668 -0.3058544 -0.04062413
0001e0 74 c9 79 be b5 d5 0f bd e6 f0 2e 3d 95 6e 92 be
       -0.24393255 -0.035115916 0.042710207 -0.28599992
0001f0 61 57 a0 3d ae 6d 5a be 19 7a 1f be 8c 83 09 3e
       0.07829166 -0.21330902 -0.1557392 0.13429087
000200 51 92 80 be fd dd a2 be d2 18 5a be 88 18 bd be
       -0.2511163 -0.3180999 -0.2129853 -0.36932778
000210 f9 e0 e6 bd f4 75 f1 bc 41 71 e8 3d 0d c5 8c be
       -0.11273379 -0.02947519 0.113497265 -0.27494088
000220 78 73 78 bc 01 bd 46 be 2f 24 a5 be fd 3f b6 bc
       -0.015164249 -0.19408037 -0.32254168 -0.022247309
000230 ce 89 a3 be f5 8e c1 bd 8a 80 ea 3b 90 99 98 bd
       -0.31941074 -0.09451095 0.0071564363 -0.07451165
000240 05 a1 3b 3e c6 a4 13 be e0 70 ab bd dd 8e c7 3d
       0.18323143 -0.14418325 -0.083711386 0.09744046
000250 00 17 47 be 27 1d 09 be 33 45 b0 3d 9f a8 44 3e
       -0.19442368 -0.13390027 0.08606949 0.19204949
000260 20 d1 b9 be fe 7b 07 3e 7b c9 64 bc 51 85 33 bd
       -0.36292362 0.13230893 -0.013964052 -0.043828312
000270 9b 48 d9 be 86 e8 9e bd 34 71 15 be 67 46 20 be
       -0.42438206 -0.07759194 -0.14593965 -0.15651856
000280 58 6f 63 3d eb 64 c8 3d 79 13 cf bd d7 61 d7 bc
       0.055526108 0.097848736 -0.10111136 -0.02629177
000290 c1 99 9e 3d e6 27 92 3e 0b be 80 bd f5 3a 87 3d
       0.0774417 0.28546065 -0.06286248 0.06603042
0002a0 4b 90 bf be ed 93 9e be a2 ce e7 bd 85 6b 87 3d
       -0.37414774 -0.30972233 -0.11318709 0.066123046
0002b0 f9 e0 58 bd a6 7f 88 be aa da 8d bc 24 2a 77 3c
       -0.052948926 -0.26659888 -0.017316181 0.015085731
0002c0 8a d4 1f bc 52 cd e2 be 68 5e 7a 3e d3 73 dc 3d
       -0.009755263 -0.44297272 0.24450076 0.10764279
0002d0 9a d7 56 3d 00 1f ed 3d fb 7d ba be af 2d b5 3d
       0.052451707 0.115781784 -0.3642424 0.08846604
0002e0 2d 4b a6 bc 27 99 8f bd f2 52 15 be 46 7a 46 be
       -0.020299518 -0.07011633 -0.14582422 -0.19382581
0002f0 5d 45 78 3d 8b 43 16 3d 1d 5a 9e bd 3e b5 d4 bd
       0.060613025 0.036685508 -0.077320315 -0.10386132
000300 c8 28 9e 3c 57 23 dc 3d 4c 2b 08 be 84 98 c1 bd
       0.019306555 0.10748928 -0.13297766 -0.09452918
000310 2c ad 90 3e 0d 08 68 bd 08 68 73 3d 41 20 27 be
       0.2825712 -0.056648303 0.059425384 -0.16320898
000320 a9 c5 2b be 32 02 17 3e 98 da cf 3c 97 fb 8a bd
       -0.1677462 0.14746931 0.025372788 -0.06786268
000330 0b 08 2c 3e e8 e4 81 be e0 25 79 bd ac 3e 2c 3e
       0.16799943 -0.25369954 -0.060827136 0.16820782
000340 01 f2 1d be 54 24 09 be fd d4 01 be 30 db 62 be
       -0.15424348 -0.13392764 -0.12678905 -0.22153926
000350 f8 ae 32 be a5 8b 1e be b3 f3 1a bd 95 f2 5d be
       -0.17449558 -0.15482958 -0.037830066 -0.21674569
000360 07 cd 1b be f5 01 13 bd 49 7d 37 bd 78 43 d0 bd
       -0.1521493 -0.03589054 -0.044797216 -0.10169119
000370 b0 e2 16 3e 42 ee 43 3d ca d5 7e be 04 3e ba bc
       0.14734912 0.047834642 -0.24886242 -0.02273465
000380 d2 3d 36 bc 08 9b 53 bc 41 66 37 be fb 82 9a 3a
       -0.011123138 -0.01291538 -0.179101 0.0011788303
000390 7b f9 5e bc 78 3a 3d 3e 49 76 f2 bc 9b ab 2f 3d
       -0.0136092855 0.18479335 -0.029597418 0.042888265
0003a0 53 c7 8b be fc 7a 9a 3d ed 9f 28 bd dd 14 2f be
       -0.2730051 0.07542989 -0.041168142 -0.17097802
0003b0 b7 8c 95 3d 91 b9 7a 3e 44 6a 78 bc a4 1b c3 bd
       0.0730223 0.2448485 -0.015162054 -0.095267564
0003c0 8c 36 55 bd 08 23 12 be cb 39 a4 bd 46 87 ef bc
       -0.052053973 -0.14271176 -0.08018836 -0.029239308
0003d0 dc 65 a8 bd 8e bc 14 be 65 ea 52 3e 48 27 a5 be
       -0.08222553 -0.14525053 0.20597227 -0.32256532
0003e0 ca ab 83 bd 90 51 f2 3d 10 38 e7 bd c4 c1 af be
       -0.064292505 0.11831963 -0.1128999 -0.3432752
0003f0 ee dc 92 3c 98 c7 4c be e2 3a 83 be d2 41 52 3d
       0.017927613 -0.19998014 -0.25630862 0.051332302

fc2.bias f4 [84]
000000 af 51 90 3f 5c e2 b7 3e 47 69 22 3f 93 3a 99 bd
       1.1274928 0.35914886 0.6344189 -0.07481875
000010 3b 7c 11 3e 9c a6 61 3f 44 16 e5 bd ef 0f 17 3e
       0.14207546 0.8814485 -0.111858875 0.14752172
000020 0d 91 3b be 44 91 6a bc fd 21 23 3e ec 13 17 3f
       -0.18317051 -0.014316861 0.15930934 0.59014773
000030 b6 cd db 3e 92 38 b8 3d 19 4f 8d be 89 8c 4a bd
       0.42930382 0.08995165 -0.2759941 -0.04945043
000040 fd 67 31 3e 9d d8 dc 3e 09 32 64 3e 87 e2 36 3e
       0.17324825 0.43134013 0.22284712 0.17859851
000050 5e f6 c8 bd 47 d8 14 3f db ab 07 bd 44 ce f0 bd
       -0.09812616 0.58142513 -0.03312288 -0.11758092
000060 7f d1 82 3f 3a ff 26 3e 18 f1 a4 3e 28 e4 6b 3e
       1.0220183 0.16308299 0.3221519 0.23036253
000070 cf d8 52 bc da a6 88 3d c7 6d 20 3f 5c ea 25 3e
       -0.012869074 0.066724494 0.62667507 0.16202682
000080 cc c2 85 bc 30 aa e4 3d cc 2f 56 3f 15 24 c0 3d
       -0.016328238 0.11165273 0.8366668 0.09381882
000090 a2 1a 99 3e fc ed 3d 3e a1 d6 d2 3e 55 be 45 be
       0.29903132 0.18547815 0.41179374 -0.19310887
0000a0 eb d4 90 be 13 e9 01 be b1 b6 1a 3d bc c8 10 be
       -0.28287444 -0.12686567 0.037771884 -0.14139074
0000b0 30 71 9a be 20 a2 8a 3d cb 43 95 3c 6d 97 da bc
       -0.3016448 0.06769204 0.018220803 -0.026683534
0000c0 cc 1c e6 bd 8f a9 26 3f 9f a8 85 bd 93 b1 d4 3e
       -0.11235961 0.65102476 -0.065263025 0.41541728
0000d0 7a 4e 20 3e a3 25 e2 bd 51 a7 22 3e 55 b1 75 be
       0.15654936 -0.11042335 0.15884139 -0.23993428
0000e0 43 50 1a 3e 9f 4c 89 bd 27 d2 99 3e a4 25 46 3d
       0.1506968 -0.067040674 0.30043146 0.04837574
0000f0 2c f0 c6 3e f9 d2 08 3e 0e 83 a0 3f 0b 29 7e 3e
       0.38855112 0.1336173 1.2539995 0.24820344
000100 32 a5 ca bd 79 ac 0c 3f 4a 45 35 be 72 b6 b8 be
       -0.0989479 0.5495067 -0.17702213 -0.36076695
000110 22 9a 2f bd 45 d4 a0 bc d1 f9 bf 3e dc 83 f9 3e
       -0.042871602 -0.019632468 0.37495282 0.48733413
000120 76 e4 eb bd ac 07 67 bd e3 d8 10 3f 32 11 2d be
       -0.11518185 -0.0564038 0.5658094 -0.1690109
000130 3c ef 4d 3f 61 4b ee 3d 9f 44 9b 3e 09 8c 8f be
       0.8044317 0.11635471 0.3032579 -0.28036526
000140 28 28 05 be cc 6f a4 be ea d6 db 3d 90 9d 2e 3f
       -0.130036 -0.32116544 0.10734351 0.6820917

fc3.weight f4 [10, 84]
000000 bf 68 0b bd 9e ca 50 be be 86 2f be 06 17 13 be
       -0.03403544 -0.20389792 -0.17141244 -0.14364251
000010 3a 7d 83 3e 2e 4c 56 be 88 a5 5c be b0 5e 17 3e
       0.25681478 -0.20927498 -0.2154752 0.14782214
000020 37 8c 8e bc d8 8f b4 bd 5c 1b 1c 3b a7 84 85 3e
       -0.017400844 -0.088164985 0.0023820018 0.26077768
000030 1f 25 c1 3c 11 74 11 3e 21 2f 08 3e 77 dd ed 3c
       0.023577271 0.14204432 0.13299228 0.029036267
000040 58 e0 99 be 1c f0 a1 3e 98 55 16 bb e9 88 dd bd
       -0.30053973 0.316285 -0.0022939201 -0.10817129
000050 f1 13 2c 3d 9a 40 ac 3d c8 f8 d3 bd 4b d8 8c 3e
       0.042011205 0.08410759 -0.10350186 0.27508768
000060 8a 8c c4 3d c6 55 e4 bd 62 d1 0a be c2 89 9f be
       0.09597118 -0.111491725 -0.13556436 -0.31159788
000070 18 25 ca 3d e2 a5 39 3e 25 c5 86 be 11 dc 1b 3e
       0.09870356 0.18129686 -0.26322284 0.15220667
000080 df 18 28 3e a7 b4 1b be 0a 9d 00 be bd d6 fb bd
       0.16415738 -0.15205632 -0.12559906 -0.122968175
000090 71 6d 38 3d 3e 30 0d be 4c c3 8a bd 86 14 56 3e
       0.045026246 -0.13787934 -0.06775531 0.20906267
0000a0 b0 60 58 bd 59 14 1f 3e e8 c5 1d 3d bd 5f 5a be
       -0.052826583 0.15535106 0.038518816 -0.21325584
0000b0 35 4e 0d 3c 34 57 58 bd 4d 18 45 3d 8b 94 f1 3d
       0.008624603 -0.05281754 0.04811888 0.117959104
0000c0 45 f6 b6 3d 36 58 37 3e 65 64 01 be dc c1 2d be
       0.08933691 0.17904744 -0.12635954 -0.16968483
0000d0 55 cb fb 3d ac 1d 00 bd 0a c5 66 bc 91 f9 c7 3b
       0.12294642 -0.031278297 -0.014085064 0.0061027487
0000e0 27 b6 f4 bd b2 c4 0d bc 36 ff 6b 3c bc b3 4c be
       -0.11948805 -0.008652853 0.014404109 -0.19990438
0000f0 eb 23 0a 3e 2e 52 ee bd 09 ef 59 be 85 44 5b 3d
       0.13490264 -0.11636768 -0.21282591 0.053532142
000100 da 52 28 3e 57 de 2f 3e 33 1b ed 3d c3 f8 67 3e
       0.16437855 0.1717466 0.115774535 0.22653489
000110 ad 04 c6 3d b7 2b 2f be dd 44 2f bd a6 e0 10 3c
       0.096688606 -0.1710652 -0.042790283 0.008842623
000120 0e 6a 41 be 0a 16 2a 3e 6c 69 e8 3d 3d 5e 73 3e
       -0.18888113 0.1660997 0.113482326 0.23766418
000130 73 61 0c 3d 9d 5f 05 3e 73 94 e0 3c 00 f8 35 3e
       0.034272622 0.13024755 0.027414536 0.17770386
000140 a2 c0 fb bc 62 29 29 3d df 0c c3 3d 1e e4 38 be
       -0.030731503 0.04129923 0.09523939 -0.1805577
000150 e2 30 02 bf 72 14 e2 bc 08 2a 87 be 5a df 33 3e
       -0.5085584 -0.02759764 -0.26399255 0.1756567
000160 2a 19 9b 3e dc 10 50 3d 25 48 37 3e 71 37 e5 bb
       0.30292636 0.05079733 0.17898615 -0.0069951345
000170 eb a7 0a 3e 7c 86 2e 3e 65 c5 39 be e8 49 4a bc
       0.13540618 0.17043489 -0.18141706 -0.012346722
000180 b3 91 1a be eb 24 60 3e 2e 36 d7 bd 3f 58 2c bd
       -0.15094642 0.21889083 -0.10508381 -0.042076346
000190 46 15 34 bd 00 28 20 3c 58 b3 b3 be 71 e2 27 be
       -0.0439656 0.009775162 -0.35097766 -0.16394974
0001a0 c1 29 19 bd 18 a4 e5 bc cd d1 5a 3e 6f ae e6 3d
       -0.037393335 -0.028032348 0.21369095 0.11263739
0001b0 21 4f 07 be 82 6b 09 be 10 f8 54 3e fe 28 4d 3e
       -0.13213779 -0.13419917 0.20797753 0.20035169
0001c0 6d 11 bb be 2a 05 e6 bd 8c b5 19 bd d2 3d 1b be
       -0.36536732 -0.11231454 -0.037526652 -0.15160301
0001d0 ff 49 2e 3e 47 e5 cb bd da 6f e3 bd 69 04 6b bd
       0.17020415 -0.099558406 -0.11105318 -0.057377253
0001e0 94 57 8f bc 05 dd 87 3e 80 9c 93 be 27 c0 d6 3b
       -0.017497815 0.26535812 -0.28830338 0.006553668
0001f0 27 8b ee 3c 70 7a 3d 3e 46 ed 5f 3e ea f0 ff 3d
       0.029119087 0.18503737 0.21867856 0.124971226
000200 48 f5 2f be b7 35 04 3e c5 f5 dc 3d df 17 65 be
       -0.17183411 0.12911116 0.10789064 -0.22372387
000210 8d eb 4a be 9b 1e 3c be de e4 4c 3e 77 ad fc bd
       -0.19816418 -0.1837105 0.20009181 -0.12337773
000220 6e 56 2f 3d 5b 25 51 3e 3e 0a 1b be bc d3 c4 bd
       0.042807035 0.20424406 -0.15140626 -0.096106976
000230 a1 87 13 3d 58 f3 ed 3d 17 2e 18 bd 8e 0b 84 3d
       0.036018018 0.1161868 -0.03715333 0.064475164
000240 90 93 2d bd 0e 63 14 3e 6f 63 33 be a7 d9 92 3e
       -0.042377055 0.14490911 -0.175184 0.2868168
000250 c8 64 98 3d 64 a1 c4 bd f8 88 23 3e 56 12 69 be
       0.074410975 -0.09601095 0.15970218 -0.22760901
000260 d2 fb 47 bd 3e 53 32 3d 2b fd 27 be 43 f9 22 be
       -0.04882414 0.043536417 -0.1640517 -0.15915398
000270 da 08 64 3e 41 df 16 be e4 e0 94 3e 0a c1 42 3e
       0.22269002 -0.14733602 0.29077828 0.19018951
000280 87 cf e5 bd 87 10 47 be 88 af 51 3e 66 27 35 3e
       -0.11221223 -0.19439898 0.20477116 0.1769081
000290 03 de 1d be c6 e6 3f be ec 30 5a 3e 93 87 1f bd
       -0.15416722 -0.18740377 0.21307725 -0.038947653
0002a0 f3 c2 f6 3d 6f 6c d7 bc 40 1c 3b 3e 2d d0 3e 3d
       0.12048902 -0.026296822 0.18272495 0.04658525
0002b0 d5 39 af 3c 80 9e f5 3d 6d 81 13 bd fa d4 20 3e
       0.021389881 0.11993122 -0.036012102 0.15706244
0002c0 72 2e 87 bd 56 e5 32 3e a4 9e 50 3e 1e ed 23 3d
       -0.066006556 0.17470297 0.20373017 0.040021054
0002d0 be da 46 3e a6 44 00 bc 89 a0 45 3e 15 45 43 be
       0.19419381 -0.007828867 0.1929952 -0.19069321
0002e0 37 5c 80 38 9f 21 e5 3d e4 c5 74 bc 33 cd 5e 3e
       6.120692e-05 0.11188053 -0.014939759 0.21757965
0002f0 9c 7d 06 3d 87 5b 3e 3e 7d d6 5c be bc 89 f5 3c
       0.032834634 0.18589602 -0.21566196 0.029972903
000300 00 c2 15 3d ca b3 fd bd 05 cd 27 be eb 35 f6 3d
       0.036561966 -0.12387808 -0.16386802 0.12022003
000310 38 7d 88 3e 9b 14 51 3d f6 a2 2a 3e 5c 0f 00 be
       0.26658034 0.05104504 0.16663727 -0.12505859
000320 cb 90 5c 3e 8d 39 8a 3e b1 af 96 3e d8 cf 45 bc
       0.21539609 0.26997033 0.29430917 -0.01207348
000330 00 27 a1 bd e2 f9 0b be 5b 24 0f 3e b1 25 09 3e
       -0.07868767 -0.13669541 0.13978712 0.13393284
000340 5d 45 df bd f7 c7 62 bd 8a 33 85 be d3 55 b8 3d
       -0.10901902 -0.055366483 -0.26015884 0.09000745
000350 c7 0c 4f 3e d5 78 3d 3c 3c b7 ac bd f7 1f 30 3d
       0.20219718 0.011564453 -0.08433387 0.042999234
000360 0f a5 ac 3e de b7 13 3e 4f 54 cf bd 3d 56 32 3e
       0.3371968 0.14425609 -0.101235025 0.1741571
000370 2d c7 9c bc 43 27 89 3e 18 8e 02 bd b8 22 84 3d
       -0.019137943 0.26787767 -0.031873792 0.064519346
000380 75 18 0c be c9 72 ed 3d a5 b6 08 3e 09 60 5f bd
       -0.13681205 0.11594159 0.13350923 -0.054534946
000390 5e 15 9d bd 03 1f ad bd 68 b6 f3 3d 34 52 66 be
       -0.07670091 -0.08453181 0.119000256 -0.22492296
0003a0 ab 75 17 be fc e0 20 3e dc f6 db bd 2c d4 e3 3d
       -0.1479098 0.15710825 -0.10740444 0.11124453
0003b0 5d 4f a9 3b 26 59 74 3d 7e 45 b2 bd 3b f5 0f 3e
       0.0051669315 0.05965533 -0.08704661 0.14058392
0003c0 39 96 f3 3d a5 64 4e bd 05 c1 72 bd e2 f4 0e 3d
       0.11893887 -0.05038895 -0.05926611 0.034901507
0003d0 87 64 61 bd 80 0d 61 3d 94 68 17 be fc 5e 79 3c
       -0.05502751 0.054944515 -0.14785987 0.0152204
0003e0 22 c0 60 3e 65 ad 55 3e f5 74 c8 bd 9f 54 56 bd
       0.21948293 0.20866926 -0.09787933 -0.052326795
0003f0 3b 1d de 3d 42 ba 5d 3e ed bd 9d 3e 6e 33 88 3d
       0.10845419 0.21653083 0.30808964 0.066504344

fc3.bias f4 [10]
000000 07 11 fb be 67 3d a3 bf 6d 83 9e be 79 3a 6e 3f
       -0.49036428 -1.2753114 -0.30959645 0.9305797
000010 de dc 9d 3f d7 8b 03 3e 5a 03 1f 3f bb 79 b5 be
       1.2333028 0.12846313 0.6211449 -0.35444435
000020 86 3c d7 3e a4 7a 4f bf
       0.42038363 -0.8104651
